…
max_size=250, scale_factor_init=0.75, noise_weight=0.1, batch_size=1, crop_size=0, num_steps=4000, lr=0.0005, gen_betas=[0.5, 0.9], dis_betas=[0.5, 0.9], num_critic=1, step_size=2000, gamma=0.1, penalty_weight=0.1, reconstruction_weight=10.0, adversarial_weight=1.0, seed=1101, print_every=200, eval_every=100, results_dir='./results', save='2025-04-18_03-58-38', evaluation=False, model_to_load='', amps_to_load='', use_tb=False, save_path='./results/2025-04-18_03-58-38')
2025-04-18 03:58:39 - INFO - MultiVanilla(
  (curr): Vanilla(
    (features): Sequential(
      (0): BasicBlock(
        (conv): Conv2d(3, 32, kernel_size=(3, 3), stride=(1, 1))
        (batch_norm): BatchNorm2d(32, eps=1e-05, momentum=0.1, affine=True, track_running_stats=True)
        (lrelu): LeakyReLU(negative_slope=0.2, inplace=True)
      )
      (1): BasicBlock(
        (conv): Conv2d(32, 32, kernel_size=(3, 3), stride=(1, 1))
        (batch_norm): BatchNorm2d(32, eps=1e-05, momentum=0.1, affine=True, track_running_stats=True)
        (lrelu): LeakyReLU(negative_slope=0.2, inplace=True)
      )
      (2): BasicBlock(
        (conv): Conv2d(32, 32, kernel_size=(3, 3), stride=(1, 1))
        (batch_norm): BatchNorm2d(32, eps=1e-05, momentum=0.1, affine=True, track_running_stats=True)
        (lrelu): LeakyReLU(negative_slope=0.2, inplace=True)
      )
      (3): BasicBlock(
        (conv): Conv2d(32, 32, kernel_size=(3, 3), stride=(1, 1))
        (batch_norm): BatchNorm2d(32, eps=1e-05, momentum=0.1, affine=True, track_running_stats=True)
        (lrelu): LeakyReLU(negative_slope=0.2, inplace=True)
      )
    )
    (features_to_image): Sequential(
      (0): Conv2d(32, 3, kernel_size=(3, 3), stride=(1, 1))
      (1): Tanh()
    )
  )
  (prev): Module()
)
2025-04-18 03:58:39 - INFO - Vanilla(
  (features): Sequential(
    (0): BasicBlock(
      (conv): Conv2d(3, 32, kernel_size=(3, 3), stride=(1, 1))
      (batch_norm): BatchNorm2d(32, eps=1e-05, momentum=0.1, affine=True, track_running_stats=True)
      (lrelu): LeakyReLU(negative_slope=0.2, inplace=True)
    )
    (1): BasicBlock(
      (conv): Conv2d(32, 32, kernel_size=(3, 3), stride=(1, 1))
      (batch_norm): BatchNorm2d(32, eps=1e-05, momentum=0.1, affine=True, track_running_stats=True)
      (lrelu): LeakyReLU(negative_slope=0.2, inplace=True)
    )
    (2): BasicBlock(
      (conv): Conv2d(32, 32, kernel_size=(3, 3), stride=(1, 1))
      (batch_norm): BatchNorm2d(32, eps=1e-05, momentum=0.1, affine=True, track_running_stats=True)
      (lrelu): LeakyReLU(negative_slope=0.2, inplace=True)
    )
    (3): BasicBlock(
      (conv): Conv2d(32, 32, kernel_size=(3, 3), stride=(1, 1))
      (batch_norm): BatchNorm2d(32, eps=1e-05, momentum=0.1, affine=True, track_running_stats=True)
      (lrelu): LeakyReLU(negative_slope=0.2, inplace=True)
    )
  )
  (classifier): Conv2d(32, 1, kernel_size=(3, 3), stride=(1, 1))
)
2025-04-18 03:58:39 - INFO - Number of parameters in generator: 29763
2025-04-18 03:58:39 - INFO - Number of parameters in discriminator: 29185
2025-04-18 03:58:39 - INFO - 
Scale #1
2025-04-18 03:58:40 - INFO - Iteration 0, D: 0.125258, D_r: 0.157348, D_f: -0.090233, D_gp: 0.581428, G: 3.52445, G_recon: 0.33056, G_adv: 0.21889
2025-04-18 03:58:43 - INFO - Iteration 200, D: -9.507666, D_r: -10.434248, D_f: -0.183709, D_gp: 11.102920, G: 1.59822, G_recon: 0.03265, G_adv: 1.27168
…
